…
ard: Start with &#39;tensorboard --logdir runs/train&#39;, view at http://localhost:6006/ wandb: Currently logged in as: lordronz (use `wandb login --relogin` to force relogin) wandb: Tracking run with wandb version 0.12.7 wandb: Syncing run major-shadow-1 wandb: ⭐️ View project at https://wandb.ai/lordronz/YOLOv5 wandb: 🚀 View run at https://wandb.ai/lordronz/YOLOv5/runs/3j8heu3j wandb: Run data is saved locally in /content/yolov5/wandb/run-20211216_101614-3j8heu3j wandb: Run `wandb offline` to turn off syncing. Overriding model.yaml nc=80 with nc=2 from n params module arguments 0 -1 1 3520 models.common.Conv [3, 32, 6, 2, 2] 1 -1 1 18560 models.common.Conv [32, 64, 3, 2] 2 -1 1 18816 models.common.C3 [64, 64, 1] 3 -1 1 73984 models.common.Conv [64, 128, 3, 2] 4 -1 2 115712 models.common.C3 [128, 128, 2] 5 -1 1 295424 models.common.Conv [128, 256, 3, 2] 6 -1 3 625152 models.common.C3 [256, 256, 3] 7 -1 1 1180672 models.common.Conv [256, 512, 3, 2] 8 -1 1 1182720 models.common.C3 [512, 512, 1] 9 -1 1 656896 models.common.SPPF [512, 512, 5] 10 -1 1 131584 models.common.Conv [512, 256, 1, 1] 11 -1 1 0 torch.nn.modules.upsampling.Upsample [None, 2, &#39;nearest&#39;] 12 [-1, 6] 1 0 models.common.Concat [1] 13 -1 1 361984 models.common.C3 [512, 256, 1, False] 14 -1 1 33024 models.common.Conv [256, 128, 1, 1] 15 -1 1 0 torch.nn.modules.upsampling.Upsample [None, 2, &#39;nearest&#39;] 16 [-1, 4] 1 0 models.common.Concat [1] 17 -1 1 90880 models.common.C3 [256, 128, 1, False] 18 -1 1 147712 models.common.Conv [128, 128, 3, 2] 19 [-1, 14] 1 0 models.common.Concat [1] 20 -1 1 296448 models.common.C3 [256, 256, 1, False] 21 -1 1 590336 models.common.Conv [256, 256, 3, 2] 22 [-1, 10] 1 0 models.common.Concat [1] 23 -1 1 1182720 models.common.C3 [512, 512, 1, False] 24 [17, 20, 23] 1 18879 models.yolo.Detect [2, [[10, 13, 16, 30, 33, 23], [30, 61, 62, 45, 59, 119], [116, 90, 156, 198, 373, 326]], [128, 256, 512]] Model Summary: 270 layers, 7025023 parameters, 7025023 gradients, 15.9 GFLOPs Transferred 343/349 items from yolov5s.pt Scaled weight_decay = 0.0005 optimizer: SGD with parameter groups 57 weight, 60 weight (no decay), 60 bias alb
…
